checkpoints_/ts_setting_6/checkpoint.pth (torch, 30882 bytes, 8 tensors)

model.0.temporal.0.weight f4 [128, 24]
0	0xbce2d760	-0.02769059
1	0xbe16b3a5	-0.14716966
2	0xbded8439	-0.11597485
3	0xbdd1ae56	-0.1023833
4	0xbe1017ff	-0.14071654
5	0xbe331b7a	-0.1749095
6	0xbc415a90	-0.011801377
7	0x3e232a30	0.15934062
8	0xbd9ed67a	-0.07755752
9	0x3e336e02	0.17522433
10	0xbda9d654	-0.08292833
11	0x3d2a198c	0.04152827
12	0xbd001d3c	-0.03127788
13	0xbe163bc9	-0.14671244
14	0xbdbb6576	-0.091502115
15	0xbe4ceae5	-0.2001148
16	0x3d48b7b0	0.049003303
17	0xbd8638be	-0.065537915
18	0xbdc17194	-0.094454914
19	0xbcc1e598	-0.02366905
20	0xbdcd605c	-0.10028145
21	0xbe2a3414	-0.16621429
22	0x3c237ce0	0.009978503
23	0xbd4cfcf4	-0.050045922
24	0x3a369400	0.0006964803
25	0x3e25dd26	0.16197643
26	0xbd7efaa0	-0.062250733
27	0x3d3b45b4	0.04572077
28	0x3d85550c	0.06510362
29	0xbdf46156	-0.11932628
30	0x3d2392f8	0.039935082
31	0x3e3e6e3e	0.18596742
32	0xbe0c0bd0	-0.13676381
33	0xbd449928	-0.047997624
34	0x3e02de24	0.12780052
35	0xbd98c280	-0.07458973
36	0xbdb83389	-0.089942046
37	0xbe4c86c4	-0.19973284
38	0xbe330b98	-0.17484891
39	0x3b6113c0	0.0034344047
40	0x3cd0c2a8	0.025483444
41	0x3dcf995c	0.10136673
42	0xbd4b5c78	-0.049648732
43	0xbe31a49c	-0.1734795
44	0x3d81b520	0.06333375
45	0xbdb707c1	-0.08937026
46	0x3d33fd00	0.04394245
47	0x3e2408ae	0.16018936
48	0x3d654308	0.05597213
49	0xbe3e6a62	-0.1859527
50	0xbb4be140	-0.0031109601
51	0xbd6d4ff0	-0.057937562
52	0xbe03b6a3	-0.12862639
53	0x3da7beb4	0.081906706
54	0xbd847800	-0.06468201
55	0x3ddda834	0.10823098
56	0x3d96ddf4	0.07366553
57	0xbdad4a6e	-0.08461462
58	0x3dfa2e28	0.12215835
59	0xbc964318	-0.01834254
60	0xbdb0b565	-0.08628348
61	0xbda02694	-0.07819858
62	0x3e33820a	0.17530075
63	0x3d4c7f30	0.049925983
64	0xbdd45b30	-0.10368955
65	0x3dc6483c	0.09681746
66	0xbd708340	-0.05871892
67	0x3e18f210	0.1493609
68	0x3de2d2b0	0.11075342
69	0xbdf809c8	-0.121112406
70	0xbd16a188	-0.036775142
71	0xbba5ca20	-0.0050594956
72	0x3da53ddc	0.08068439
73	0xbe1fccfb	-0.15605538
74	0xbe39134f	-0.18073772
75	0xbb0d4b40	-0.0021559745
76	0x3b695b00	0.0035607219
77	0xbd018564	-0.03162135
78	0xbdf19cbe	-0.11797474
79	0xbd4d7ea0	-0.050169587
80	0xbac0c280	-0.0014706403
81	0xbe18bae2	-0.1491504
82	0x3ded1084	0.11575416
83	0x3d68a790	0.056800425
84	0xbc658da0	-0.014010817
85	0x3cf826f8	0.03029202
86	0x3e422be8	0.18962061
87	0x3e4f286a	0.2023026
88	0x3e2bd5e4	0.16780812
89	0x3e497d54	0.19676715
90	0xbda1d3e4	-0.07901743
91	0x3e0dd462	0.13850549
92	0xbe359943	-0.17734246
93	0x3dbfc8f0	0.09364498
94	0xbe294eff	-0.16534041
95	0x3cd50b28	0.026006296
96	0x3df0e570	0.11762512
97	0x3e1f8ac0	0.15580273
98	0x3e061dae	0.1309726
99	0x3d247868	0.04015389
100	0x3daf98f4	0.08574095
101	0xbdd28612	-0.10279478
102	0x3d903874	0.070420176
103	0x3e13c2dc	0.14429802
104	0x3e010794	0.12600547
105	0x3dc81e28	0.09771377
106	0xbd052980	-0.03251028
107	0x3e4ec4ac	0.20192212
108	0xbe2a8a3c	-0.16654295
109	0xbc36da10	-0.011160389
110	0xbd18666c	-0.037207052
111	0xbc6189d0	-0.013765767
112	0x3de919dc	0.113818854
113	0xbd7597e0	-0.059959292
114	0xbe431737	-0.19051825
115	0xbde2e1db	-0.11078235
116	0xbda1d09c	-0.07901117
117	0xbdf1c2b9	-0.118047185
118	0xbe45d83c	-0.19320768
119	0x3db16714	0.08662239
120	0x3e265638	0.16243827
121	0xb82f1000	-4.1738153e-05
122	0xbd259334	-0.040423587
123	0xbda648ad	-0.081193306
124	0xbda24a8d	-0.07924376
125	0xbdaeaa2d	-0.08528552
126	0xbe0ae3b9	-0.13563432
127	0xbe4c205a	-0.19934216
128	0x3e3a3f26	0.18188152
129	0xbdecf6f1	-0.11570538
130	0xbe3e36af	-0.18575548
131	0xbd8c7614	-0.06858459
132	0xbacc2200	-0.0015574098
133	0x3d9670a4	0.07345703
134	0xbd4d19e4	-0.05007352
135	0x3e252ea6	0.16131076
136	0x3d49fea8	0.049315125
137	0x3bb2a320	0.005451575
138	0x3d4280a8	0.047485977
139	0xbc066aa0	-0.008204132
140	0xbbedcc00	-0.0072569847
141	0xbe379259	-0.17926921
142	0xbe04cf50	-0.12969708
143	0xbd745e68	-0.059660345
144	0x3bd15580	0.006388366
145	0xbcc66d28	-0.024221972
146	0xbdbf8adf	-0.093526594
147	0xbcd45ad8	-0.025922224
148	0xbe299fad	-0.16564818
149	0x3e498cc0	0.19682598
150	0x3e3b71cc	0.18305129
151	0x3a38e800	0.00070536137
152	0xbe19f053	-0.15033083
153	0x3a4abd00	0.00077338517
154	0x3d84bba0	0.06481099
155	0xbc6c1340	-0.014408886
156	0x3e08cf78	0.13360393
157	0xbc8e6bd8	-0.017385408
158	0x3e35db98	0.1775955
159	0x3c966cc8	0.018362418
160	0x3e4a4998	0.19754636
161	0x3ce8eb38	0.028432474
162	0xbd866966	-0.06563072
163	0xbdbe98a7	-0.0930646
164	0xbde6a8c8	-0.11262661
165	0x3dacdf94	0.08441082
166	0x3d987754	0.07444635
167	0x3df2a2c4	0.11847451
168	0x3e44f4c0	0.1923399
169	0xbda0c6be	-0.07850407
170	0xbe05388a	-0.13009849
171	0x3e4f9508	0.20271695
172	0x3e2c884e	0.16848871
173	0xbe25ea1c	-0.16202587
174	0x3e2cac88	0.1686269
175	0xbd557c54	-0.05212052
176	0xbd5d290c	-0.053994223
177	0xbe1bb710	-0.15206552
178	0x3c41ee60	0.011836618
179	0x3d4777d0	0.048698246
180	0x3d14fe54	0.03637536
181	0x3de8fc48	0.11376244
182	0xbdb3f765	-0.08787421
183	0x3e38a6e2	0.1803241
184	0x3de5a9e8	0.11214048
185	0x3e12064c	0.14260215
186	0x3e19b07e	0.15008733
187	0xbdd8644c	-0.10566005
188	0x3d8fc048	0.070190966
189	0x3db09858	0.08622807
190	0x3d9cc7a0	0.07655263
191	0xbdc47453	-0.095924996
192	0xbd9a4382	-0.07532407
193	0x3d003014	0.03129585
194	0xbd6e1b34	-0.05813141
195	0xbcf776e8	-0.030208066
196	0x3c1e7560	0.009671539
197	0xbd0035f8	-0.03130147
198	0xbd0eb2b4	-0.034838393
199	0x3e2b2a14	0.1671527
200	0xbe3581f4	-0.17725354
201	0x3e48d640	0.1961298
202	0xbd84c986	-0.0648375
203	0xbdb4936f	-0.08817183
204	0xbe24d051	-0.16095091
205	0x3d9216c0	0.071332455
206	0x3dd4b1f4	0.10385504
207	0x3b0f9100	0.0021906495
208	0x3c73c710	0.014879003
209	0xbde3ca2a	-0.11122544
210	0xbdcf4b85	-0.10121826
211	0xbdc07e57	-0.093990974
212	0xbe238788	-0.1596967
213	0xbe030e92	-0.12798527
214	0x3e26f8ba	0.16305819
215	0x3daf9f14	0.085752636
216	0x3d3e7140	0.046494722
217	0x3d9013b4	0.07035008
218	0x3e22590c	0.15854281
219	0xbe1a6372	-0.15076998
220	0x3e39ea1a	0.18155709
221	0x3d4f2468	0.05057183
222	0x3e41925c	0.18903488
223	0x3e2a6b7c	0.16642565
224	0x3e48f61e	0.19625136
225	0x3e4e9f12	0.20177868
226	0xbe171aaa	-0.14756265
227	0x3d0a0068	0.033691794
228	0xbe05b2f5	-0.13056548
229	0xbc25a630	-0.010110423
230	0x3e2fa78a	0.17153755
231	0x3e2983ba	0.16554156
232	0xbe3982c2	-0.18116286
233	0xbdd12766	-0.10212593
234	0x3dd9cb84	0.10634521
235	0x3b592540	0.0033133775
236	0x3d0d4f80	0.034499645
237	0xbe297b07	-0.16550837
238	0x3e322afa	0.17399207
239	0xbe3a2f4c	-0.18182105
240	0xbe4c39a6	-0.19943866
241	0xbb487800	-0.0030589104
242	0x3dead394	0.114661366
243	0xbaa66400	-0.0012694597
244	0xbe1da549	-0.15395083
245	0xbc8e7e90	-0.017394334
246	0xbde0ebfb	-0.1098251
247	0x3d825c2c	0.06365237
248	0xbc3e0110	-0.011596933
249	0xbdcdf316	-0.100561306
250	0xbbc7cce0	-0.006097421
251	0x3e374850	0.17898679
252	0xbde8486a	-0.11341937
253	0x3da2d0e0	0.07949996
254	0xbdacc9c1	-0.08436919
255	0xbce7ab40	-0.0282799

model.0.temporal.0.bias f4 [128]
0	0xbe264ab0	-0.16239429
1	0x3d83af38	0.06429905
2	0xbd7fce58	-0.062452644
3	0xbe2004aa	-0.15626779
4	0x3e2598f2	0.16171625
5	0x3de5aa14	0.112140805
6	0xbe2e4ebf	-0.17022227
7	0xbd4be35c	-0.049777374
8	0x3e3133b0	0.17304873
9	0x3e26e676	0.16298851
10	0xbd9e6660	-0.0773437
11	0x3d347f48	0.044066697
12	0xbd7c215c	-0.06155525
13	0x3d8d102c	0.0688785
14	0xbd595fe4	-0.053069964
15	0x3e346d14	0.17619735
16	0xbe070524	-0.13185555
17	0x3ddbff24	0.107420236
18	0xbe1932cc	-0.14960784
19	0x3dcd45d0	0.10023081
20	0xbc450a60	-0.012026399
21	0xbd918150	-0.071047425
22	0x3dc176ec	0.09446511
23	0xbcbfb050	-0.023399502
24	0x3e060870	0.13089156
25	0x3e502c04	0.2032929
26	0xbc147880	-0.009061933
27	0x3d9bb588	0.07602984
28	0x3d60ea28	0.05491081
29	0xbe0dac76	-0.1383532
30	0x3e3eb990	0.18625474
31	0xbcb72d88	-0.022360578
32	0x3dde9134	0.10867539
33	0x3d100f08	0.035170585
34	0xbd8417ba	-0.06449838
35	0x3d9f8f94	0.07791057
36	0x3d49d720	0.049277425
37	0x3e363950	0.177953
38	0xbccda528	-0.025103167
39	0x3d2a3994	0.041558817
40	0x3d99ab2c	0.075033516
41	0xbdc085a9	-0.09400494
42	0x3cf48050	0.02984634
43	0xbd453408	-0.048145324
44	0xbe2cc807	-0.1687318
45	0xbde09bbc	-0.10967204
46	0x3e3a89c4	0.18216616
47	0x3a883600	0.001039207
48	0xbe203732	-0.15646055
49	0xbe2c5a20	-0.16831255
50	0x3d0c28a8	0.03421846
51	0xbe245624	-0.16048485
52	0xbe0f8f22	-0.14019445
53	0xbd89548c	-0.06705579
54	0xbde623d1	-0.112373
55	0x3e119ee4	0.14220768
56	0x3e3b1018	0.18267858
57	0xbb65a440	-0.0035040528
58	0xbe366290	-0.17811036
59	0x3e1a0326	0.15040264
60	0xbd930e64	-0.07180479
61	0xbe3d2f7b	-0.18475144
62	0xbe1e4292	-0.15455082
63	0x3c4f2550	0.012643173
64	0xbe169a89	-0.14707388
65	0x3c320010	0.010864273
66	0xbd755054	-0.05989106
67	0x3df78d60	0.12087512
68	0x3e4d6260	0.20057058
69	0xbc9ba2d8	-0.018998548
70	0xbd8ca126	-0.06866674
71	0xbe49f5c5	-0.1972266
72	0x3d8b8934	0.06813279
73	0x3daaf384	0.08347228
74	0xbe1fcbc6	-0.15605077
75	0xbdae500e	-0.08511363
76	0x3e045860	0.12924337
77	0x3d3690fc	0.04457186
78	0xbc054f30	-0.008136556
79	0x3dc171f0	0.0944556
80	0xbe3f633a	-0.18690196
81	0x3d647680	0.055777073
82	0x3d2f5240	0.04280305
83	0x3d2c54b0	0.04207295
84	0x3d2b9610	0.041891158
85	0xbdcfaef8	-0.101407945
86	0x3db8fce8	0.09032613
87	0x3e3ca986	0.18424043
88	0xbdbaae43	-0.09115269
89	0xbd9a61ce	-0.07538186
90	0xbd3eeb50	-0.04661113
91	0x3e2667f4	0.16250592
92	0xbd9a10d4	-0.07522741
93	0x3e287714	0.16451675
94	0xbe00e954	-0.12589008
95	0xbd8852da	-0.06656428
96	0x3e453c00	0.1926117
97	0xbd75f3e0	-0.06004703
98	0xbe1a0b53	-0.15043382
99	0x3c638cc0	0.013888538
100	0xbcff7058	-0.0311815
101	0xbe26e57b	-0.16298477
102	0xbe2fce69	-0.17168583
103	0x3e3adbf0	0.18247962
104	0xbd8bdbe6	-0.06829052
105	0x3c5d1d60	0.013495773
106	0xbe268ba1	-0.16264202
107	0xbd97561e	-0.073894724
108	0x3d5eb0a0	0.05436766
109	0x3d5f9498	0.05458507
110	0x3dadc670	0.084851146
111	0x3dc77750	0.09739554
112	0xbd50cd4c	-0.050977036
113	0xbc7c40d0	-0.015396312
114	0xbdc27057	-0.094940834
115	0xbdae557a	-0.08512397
116	0x3d7066a8	0.05869165
117	0xbe2e008a	-0.16992393
118	0x3e4ffec8	0.20312035
119	0xba347e00	-0.00068852305
120	0x3e461dc2	0.19347289
121	0xbe3ff2f1	-0.18745019
122	0x3de20354	0.11035791
123	0x3dea9a40	0.11455202
124	0xbdede4c3	-0.116158985
125	0x3c778cb0	0.015109226
126	0x3d487d70	0.04894775
127	0xbe26c297	-0.16285168

model.0.temporal.2.weight f4 [24, 128]
0	0x3cb16e70	0.021659106
1	0xbd6953b5	-0.056964595
2	0x3d487ff2	0.048950143
3	0xbbd1cab0	-0.006402336
4	0xbb4df1c0	-0.0031424612
5	0x3d62f81e	0.055412404
6	0xbc0489d0	-0.008089498
7	0xbd4edd34	-0.050503924
8	0xbca09110	-0.019600421
9	0x3c5ffdf0	0.013671383
10	0xbd92d937	-0.07170337
11	0xbd535c30	-0.05160159
12	0x3c2cb8f0	0.010542139
13	0x3dac89ff	0.08424758
14	0x3b96e330	0.0046047196
15	0x3cf3eee0	0.02977699
16	0xbda41115	-0.08011071
17	0x3d51d516	0.051228605
18	0x3c0a9518	0.008458398
19	0x3c8a4264	0.01687736
20	0xbd551f5a	-0.052031852
21	0x3c495938	0.012289338
22	0xbd8e5b62	-0.06951024
23	0x3da9bf1f	0.082884066
24	0xbca4f268	-0.02013512
25	0xbda531f6	-0.0806617
26	0xbcc73530	-0.024317354
27	0xbc8cc1f0	-0.01718232
28	0xbd9c27b1	-0.07624758
29	0x3daeb17b	0.085299455
30	0x3cff0f10	0.031135112
31	0xbc8b9248	-0.017037526
32	0x3c312de8	0.010814168
33	0xbb6fd240	-0.0036593825
34	0xbd3be32e	-0.045870952
35	0x3d7ac586	0.06122353
36	0xbcdb9f7a	-0.026809443
37	0x3b10ef00	0.0022115111
38	0x3d548d96	0.05189284
39	0x3dabb94d	0.08384953
40	0x3d8620e3	0.065492414
41	0x3cd931f8	0.026513085
42	0xbdb25089	-0.08706767
43	0xbd298429	-0.041385803
44	0xbd2f2fc8	-0.042770177
45	0xbd54d7ed	-0.051963735
46	0x3d550d22	0.052014478
47	0xbcff2068	-0.031143382
48	0x3d5f6776	0.054542027
49	0x3da1ca05	0.0789986
50	0x3d941c9d	0.0723202
51	0xbc346a38	-0.011011653
52	0x3d4095a6	0.047017716
53	0xbc8bb9b0	-0.017056316
54	0xbc8cb6b8	-0.01717697
55	0x3d589a72	0.052881666
56	0x3ba8dd90	0.0051533654
57	0x3da142f3	0.07874098
58	0x3d4cf8c2	0.05004192
59	0x3d86597b	0.06560036
60	0xbd751e66	-0.059843443
61	0xbc7375f8	-0.014859669
62	0xbbf7e060	-0.0075645894
63	0x3d9c568d	0.07633696
64	0x3c02cb18	0.007982992
65	0xbcbf2edc	-0.023337774
66	0xbdacdbc6	-0.08440356
67	0x3d92c0a3	0.07165649
68	0xbd9ecd3f	-0.07753991
69	0x3cf2ec4c	0.02965369
70	0xbd60b5d8	-0.05486092
71	0x3d3ebd96	0.046567522
72	0x3da73f2f	0.08166348
73	0xbc64cb40	-0.013964474
74	0x3d722862	0.059120543
75	0x3d129ec8	0.035795957
76	0xbc6cd320	-0.014454633
77	0x3d97e5d1	0.07416881
78	0xbda3d367	-0.07999306
79	0xbd121305	-0.03566267
80	0x3d74dc86	0.05978062
81	0x3c4c59f8	0.012472622
82	0xbc53fc78	-0.012938611
83	0x3cfaeac4	0.030629523
84	0xbcbebeb0	-0.023284286
85	0x3b935b70	0.004496984
86	0x3d6c69a6	0.05771794
87	0xbcbf030c	-0.023316883
88	0x3c4ab540	0.012372315
89	0xbd735073	-0.059402894
90	0x3d9c52b9	0.076329656
91	0xbd660b03	-0.056162845
92	0x3c578548	0.013154335
93	0xbd0eae90	-0.034834445
94	0xbb8b7910	-0.004256375
95	0x3d45f202	0.0483265
96	0x3da9a1bb	0.08282801
97	0xbd95bb49	-0.073111124
98	0x3db0ecf9	0.08638949
99	0x3cf38608	0.029726997
100	0x3cae1550	0.021250397
101	0x3cb66830	0.022266477
102	0xbccbb888	-0.024868265
103	0x3c1a4e20	0.0094180405
104	0x3d3d0ffe	0.04615783
105	0xbcd13a04	-0.02554036
106	0xbb3edf60	-0.002912484
107	0xba282180	-0.00064136833
108	0x3bf5d960	0.0075027198
109	0x3c0caef0	0.00858663
110	0x3cb6cce8	0.022314504
111	0xbda538ff	-0.08067512
112	0xbda5d56c	-0.080973476
113	0x3bc0f810	0.0058889464
114	0x3d1deef2	0.038557954
115	0x3d878e63	0.06618955
116	0x3d3f84b2	0.046757407
117	0x3d460026	0.048339985
118	0xbd556788	-0.05210069
119	0xbdaa354e	-0.08310948
120	0x3caf8cd4	0.021429457
121	0x3ce7d380	0.028299093
122	0xbd9a8cc7	-0.075463824
123	0x3d80acc1	0.0628295
124	0x3c245f78	0.010032527
125	0xbccf8f4c	-0.025336884
126	0xbd8636c5	-0.06553415
127	0xbc8c7f30	-0.017150491
128	0x3d553912	0.05205638
129	0x3ce54bec	0.027990304
130	0x3d6788fa	0.056527115
131	0xbc36c318	-0.011154912
132	0xbd202fee	-0.03910821
133	0xbb63f560	-0.0034783706
134	0xbc8d9e0c	-0.017287277
135	0x3d5d72a2	0.0540644
136	0xbc4d4ea0	-0.012530953
137	0xbd719a9e	-0.058985345
138	0xbd2b26c1	-0.041785005
139	0x3d5e183e	0.054222338
140	0xbca33e34	-0.019927122
141	0xbce1c7a8	-0.027561024
142	0x3c5a24b0	0.013314411
143	0x3d1a8fc2	0.037734754
144	0xbd8f91f6	-0.07010262
145	0xbd784f6e	-0.060622625
146	0x3ca3eedc	0.020011358
147	0x3ba94ca0	0.005166605
148	0x3db4fe99	0.08837623
149	0x3da83f3b	0.08215185
150	0x3c3e5120	0.011616021
151	0xbd51705c	-0.051132545
152	0x3acce700	0.0015632808
153	0x3d049188	0.032365352
154	0x3d0b094e	0.03394442
155	0x3ca22e28	0.0197974
156	0xbd590b91	-0.052989546
157	0xbd00aa70	-0.031412542
158	0xbc590b18	-0.013247274
159	0xbd258e33	-0.040418815
160	0x3d8c204b	0.06842097
161	0xbcaac650	-0.020846516
162	0x3d9e16e5	0.077192105
163	0xbda0b743	-0.078474544
164	0xbc3af1c0	-0.011410177
165	0xbbf94db0	-0.007608138
166	0x3d8c41db	0.068484984
167	0x3ccd9f08	0.025100246
168	0x3d8b3c41	0.06798602
169	0x3cdb53e8	0.026773408
170	0xbd76e0d6	-0.060273014
171	0xbc7e6488	-0.015526898
172	0x3dae695f	0.08516192
173	0xbda85c79	-0.08220763
174	0x3d08271a	0.033240415
175	0xbd94a8b6	-0.072587416
176	0x3da5907b	0.08084198
177	0x3c071c58	0.008246504
178	0x3d0ec10e	0.03485208
179	0x3b8b0140	0.0042420924
180	0xbcabaae8	-0.020955518
181	0x3d91efb5	0.071257986
182	0xbc8919ac	-0.016735874
183	0x3b803e00	0.003913641
184	0x3c268da8	0.010165609
185	0x3d4a2f0a	0.049361266
186	0xbd9724b6	-0.07380049
187	0x3d07566c	0.033041403
188	0x3cea1588	0.02857472
189	0xbcfb3ed4	-0.030669607
190	0x3d97ba73	0.07408609
191	0xbd234a82	-0.039865978
192	0xba536e00	-0.00080654025
193	0xbd511af2	-0.051051088
194	0x3ce55084	0.027992494
195	0x3db1b02d	0.08676181
196	0x3dac2b77	0.08406728
197	0xbccae3b0	-0.024766773
198	0xbd21d423	-0.03950895
199	0xbc831c70	-0.016004771
200	0xbc85b654	-0.016322292
201	0x3d2e7352	0.042590447
202	0xbdb16361	-0.08661533
203	0xbcbf0e18	-0.02332215
204	0x3cc3391c	0.023830943
205	0x3d9e7285	0.077366866
206	0x3cced850	0.02524963
207	0xbdb37572	-0.08762635
208	0xbdab6fd6	-0.083709404
209	0x3d1e0256	0.038576446
210	0xba92df00	-0.0011205375
211	0xbd1e29eb	-0.038614195
212	0x3d47fade	0.04882323
213	0x3c4503d8	0.012024842
214	0xbd2b39d3	-0.041803192
215	0x3d202fa6	0.03910794
216	0x3bfac6b0	0.00765308
217	0xbd1bf7ae	-0.038078003
218	0xbd879a90	-0.06621277
219	0x3cbc5cc4	0.022993453
220	0xbcf29d46	-0.02961601
221	0xbd149042	-0.036270387
222	0x3d97368f	0.07383453
223	0xba833f00	-0.0010013282
224	0x3cd94740	0.026523232
225	0x3d0b3458	0.033985466
226	0xbd978171	-0.07397736
227	0x3d4710ea	0.048600115
228	0xbb1a4be0	-0.002354376
229	0x3d2bb686	0.041922115
230	0x3d306732	0.043067165
231	0xbcbef798	-0.023311421
232	0x3c4fc470	0.012681112
233	0x3d9f8f09	0.07790954
234	0x3d6294ba	0.055317618
235	0xbd6c55f8	-0.057699174
236	0x3d3cc362	0.04608477
237	0x3d4e2292	0.050325938
238	0xba0cb080	-0.0005366877
239	0x3ca4a74c	0.020099305
240	0x3da54543	0.08069851
241	0xbcf92a3a	-0.030415643
242	0x3d1ae60e	0.037817053
243	0xbd219731	-0.039450828
244	0x3c6867c8	0.0141849
245	0xbd00a1be	-0.03140425
246	0x3daf4053	0.08557191
247	0x3cef2938	0.02919446
248	0x3da311f5	0.079624094
249	0xbda4a00d	-0.0803834
250	0xbd9a33f7	-0.07529443
251	0x3d5e933e	0.05433964
252	0xbd7d8eae	-0.061903648
253	0x3d7ee2c6	0.062227987
254	0xbda8f5bb	-0.08249994
255	0x3cdc9e74	0.026931025

model.0.temporal.2.bias f4 [24]
0	0xbd011c72	-0.03152127
1	0xbb902d30	-0.004399918
2	0xbb597140	-0.0033179075
3	0x3d1af8c6	0.037834905
4	0x3d8ef379	0.069800325
5	0xbd874ed2	-0.06606831
6	0xbc0f6658	-0.008752428
7	0x3d1755a2	0.0369469
8	0xbd8afdb4	-0.06786671
9	0xbd5f2777	-0.054480996
10	0x3d3b9c0e	0.045803122
11	0xbcf17358	-0.029473945
12	0x3d9743a7	0.073859505
13	0xbdab2e78	-0.083584726
14	0x3d0e1e34	0.034696773
15	0xbdaaabd7	-0.08333557
16	0xbc552c98	-0.01301112
17	0xbda19e06	-0.07891469
18	0x3d95aaf5	0.07307998
19	0x3d8d0a23	0.06886699
20	0xbcc8e108	-0.024521366
21	0x3d9cd59b	0.076579295
22	0x3d9f09d7	0.07765549
23	0x3d22bee6	0.039732836

model.0.channel.0.weight f4 [128, 1]
0	0xbe78fa98	-0.24314344
1	0xbf448466	-0.76764524
2	0x3f7d7574	0.99007344
3	0xbe35fa70	-0.17771316
4	0xbef46b40	-0.47738075
5	0x3eb17408	0.34658837
6	0x3e6f7c08	0.23387158
7	0xbef79dc0	-0.4836254
8	0x3e694130	0.22778773
9	0x3e4cc730	0.19997859
10	0xbebf93f4	-0.37417567
11	0x3ed3a0a0	0.41333485
12	0x3ee5576c	0.4479326
13	0xbeb5d834	-0.35516512
14	0x3e3c4810	0.18386865
15	0xbf7ed238	-0.9953952
16	0x3dc23380	0.09482479
17	0xbd47e3a0	-0.048801064
18	0x3e293d30	0.16527247
19	0xbf6e4532	-0.93074334
20	0x3f5f0d36	0.87129533
21	0x3ef6fe4c	0.48240888
22	0x3ca17000	0.019706726
23	0xbf2aaf52	-0.6667377
24	0xbf307bae	-0.6893872
25	0x3f65bf96	0.8974546
26	0x3f1dc004	0.6162112
27	0xbc9a2a40	-0.018818974
28	0x3f035f5e	0.51317394
29	0xbf1b9170	-0.60768795
30	0x3f6a9bda	0.9164406
31	0x3e85733c	0.2606448
32	0xbe65f550	-0.2245686
33	0x3f787974	0.9706032
34	0x3ec78148	0.3896582
35	0xbedaee68	-0.42760015
36	0x3ee377d4	0.4442736
37	0xbe3b3320	-0.18281221
38	0xbf4317e4	-0.7620833
39	0xbf468b90	-0.77556705
40	0xbf60210a	-0.87550414
41	0xbf61c1ba	-0.8818623
42	0xbe91a428	-0.28445554
43	0x3f12bee0	0.573225
44	0xbe1b2a00	-0.1515274
45	0x3e2df630	0.16988444
46	0xbdd3ddd0	-0.10345042
47	0x3eb4b9fc	0.35298145
48	0x3f14e78a	0.581658
49	0x3e270c68	0.16313326
50	0xbd25b400	-0.040454865
51	0x3eb7aa98	0.3587234
52	0xbf56a89c	-0.8385103
53	0x3e8dc350	0.27688074
54	0xbe990a8c	-0.2989086
55	0x3e8c8be0	0.27450466
56	0xbedb986c	-0.42889726
57	0x3cf72300	0.030168056
58	0xbf4d5eba	-0.80222666
59	0xbdc59e40	-0.096493244
60	0x3e86a20c	0.26295507
61	0x3e85030c	0.25978887
62	0x3dbd39a0	0.09239507
63	0x3f794e6a	0.97385275
64	0x3f03811a	0.5136887
65	0xbf73bb6e	-0.9520787
66	0xbefd0598	-0.4941833
67	0x3f5396da	0.82652056
68	0x3e8ec43c	0.2788409
69	0x3e30b398	0.1725601
70	0xbbf16300	-0.007366538
71	0xbf187924	-0.59559846
72	0x3f55ff34	0.83592534
73	0x3e1b11b8	0.15143478
74	0x3e84b820	0.25921726
75	0x3e3f1668	0.18660891
76	0xbccf4d00	-0.025305271
77	0xbf1bd6cc	-0.6087463
78	0xbed9c818	-0.42535472
79	0xbf2f4570	-0.6846533
80	0x3f40e052	0.75342286
81	0xbf58c14a	-0.84669936
82	0x3f7ebfdc	0.99511504
83	0xbeb77e74	-0.35838664
84	0x3e41a468	0.18910372
85	0x3eed0bb4	0.4629799
86	0xbda980a0	-0.082764864
87	0x3f42a454	0.76031995
88	0xbf54cef6	-0.831283
89	0xbf15a870	-0.5846014
90	0xbf789662	-0.97104466
91	0xbd9778e0	-0.07396102
92	0x3e556d28	0.20842421
93	0x3f74cef4	0.95628285
94	0x3ef45a3c	0.47725093
95	0xbd92d250	-0.0716902
96	0x3f4cf94a	0.80067885
97	0xbf01f77e	-0.5076827
98	0x3f3e29fe	0.74282825
99	0xbf787346	-0.97050893
100	0x3f40b3ba	0.7527424
101	0x3f3a321e	0.7273272
102	0xbe126de0	-0.14299726
103	0xbf75e76e	-0.9605626
104	0x3f5a7c70	0.85346127
105	0xbf43e8c8	-0.7652707
106	0x3f10bbfc	0.5653684
107	0x3e92a46c	0.2864107
108	0x3f69fdc2	0.9140283
109	0x3f72aeb8	0.9479785
110	0xbcc4a400	-0.024003983
111	0x3e3e37b8	0.18575943
112	0xbedbb030	-0.42907858
113	0x3e00b038	0.12567222
114	0x3e9eba34	0.31001437
115	0x3dc18b40	0.09450388
116	0x3ddca470	0.107735515
117	0x3f18856c	0.59578586
118	0x3f7c8f10	0.98655796
119	0xbe853cd0	-0.2602296
120	0x3a25e000	0.0006327629
121	0x3f23d07e	0.6399001
122	0xbe9f6028	-0.3112805
123	0xbd8335a0	-0.064067125
124	0xbf5935e4	-0.84847856
125	0xbf7ba122	-0.98292744
126	0xbf23a992	-0.6393062
127	0xbea073c8	-0.31338334

model.0.channel.0.bias f4 [128]
0	0xbe415e98	-0.18883741
1	0xbf2d1296	-0.67606485
2	0xbeca4a54	-0.39509833
3	0x3e706168	0.23474658
4	0x3d949b50	0.07256186
5	0x3f2d235c	0.6763208
6	0xbdd152b0	-0.102208495
7	0x3e5c9288	0.21540272
8	0xbebdcd9c	-0.3707093
9	0xbee9a130	-0.4563079
10	0x3eade588	0.3396418
11	0xbe7c30d8	-0.24628007
12	0x3e616680	0.22011757
13	0x3f7dfc0a	0.99212706
14	0xbea6c6c8	-0.32573533
15	0x3ef1b724	0.47210038
16	0xbc99b740	-0.018764138
17	0xbf3f4f06	-0.74729955
18	0xbe007ca8	-0.12547553
19	0x3f1af8be	0.605358
20	0xbedde884	-0.43341458
21	0xbefe7d28	-0.49704862
22	0x3e976d84	0.2957574
23	0x3eff2be8	0.49838185
24	0xbe883ad0	-0.2660737
25	0xbd252be0	-0.040325046
26	0x3e7140c0	0.23559856
27	0x3f695636	0.9114717
28	0xbc545600	-0.012959957
29	0x3d1855c0	0.037191153
30	0xbebdb468	-0.37051702
31	0xbea5e8c0	-0.32404137
32	0x3f39362e	0.72348297
33	0xbcdbf600	-0.0268507
34	0x3c736180	0.014854789
35	0xbf41ff10	-0.7577982
36	0xbafc3800	-0.0019242764
37	0xbf7ac77c	-0.9796064
38	0x3ed80b1c	0.42195976
39	0x3e6dc818	0.23220861
40	0xbf3fa42e	-0.74859893
41	0x3f6a6fa8	0.91576624
42	0x3f061374	0.52373433
43	0xbe6b1c30	-0.22959971
44	0x3f154028	0.5830102
45	0xbf71bcd6	-0.94428766
46	0xbf284fc6	-0.65746725
47	0x3e7b9d40	0.24571705
48	0xbf53a916	-0.8267988
49	0xbf45f144	-0.7732127
50	0xbad3e000	-0.001616478
51	0xbf4aa64a	-0.79159987
52	0x3e9ceff8	0.30651832
53	0x3f3238a8	0.696177
54	0xbf4b547a	-0.79425776
55	0xbf6691ec	-0.9006641
56	0x3f6125b0	0.8794813
57	0xbeb53b70	-0.3539691
58	0x3f67c470	0.90534115
59	0xbf48888a	-0.7833334
60	0xbf295a44	-0.6615336
61	0xbea6a1bc	-0.3254527
62	0xbe02e398	-0.12782133
63	0x3e81ff68	0.25390172
64	0xbf3d96c0	-0.7405815
65	0x3e4b6260	0.19861746
66	0xbe186610	-0.14882684
67	0x3f3c4310	0.7353983
68	0x3f04bf9e	0.51854885
69	0xbe62ae18	-0.22136724
70	0x3f180478	0.5938182
71	0x3ed54fa0	0.41662312
72	0x3e917eb8	0.2841699
73	0x3f69bab2	0.913005
74	0x3f714d5a	0.94258654
75	0xbe4d9968	-0.20078051
76	0xbeb163d0	-0.34646463
77	0xbe14a428	-0.14515746
78	0x3f5772e0	0.8415966
79	0x3ef80b3c	0.4844607
80	0xbf398f04	-0.7248385
81	0xbf5a514a	-0.8528029
82	0xbea75c18	-0.3268745
83	0xbf13326c	-0.5749881
84	0x3cb50640	0.022097707
85	0x3f034fde	0.5129374
86	0xbe96adec	-0.29429567
87	0x3ea5dcd4	0.3239504
88	0xbe131390	-0.14362931
89	0x3f79765e	0.9744624
90	0xbf0f662c	-0.56015277
91	0xbf7dafbc	-0.99096274
92	0xbe78f770	-0.2431314
93	0xbf68a040	-0.9086952
94	0xbf08a058	-0.53369665
95	0xbf210d70	-0.6291113
96	0xbf466e2c	-0.7751186
97	0xbf3624a6	-0.7114967
98	0x3e54ec80	0.20793343
99	0x3dafaa70	0.0857743
100	0xbe042ec0	-0.12908459
101	0x3f74bd72	0.9560157
102	0xbe5c3f38	-0.21508491
103	0xbd30a2a0	-0.04312384
104	0xbf5829bc	-0.8443868
105	0x3f50b0a2	0.8151952
106	0xbe8c0c5c	-0.2735318
107	0x3f4ec8c2	0.8077508
108	0x3cd6e240	0.026230931
109	0xbd249060	-0.04017675
110	0xbf06ec58	-0.5270438
111	0x3e9165b0	0.28397894
112	0xbebc0e2c	-0.36729562
113	0xbee406d0	-0.44536448
114	0xbf67df76	-0.9057535
115	0xbe1a9690	-0.15096498
116	0x3f0cf4b0	0.55060863
117	0x3f4f2e5c	0.80930114
118	0x3f3bade2	0.733122
119	0xbf053560	-0.5203457
120	0xbf79d020	-0.975832
121	0xbf43d9e8	-0.76504374
122	0xbda76c80	-0.081749916
123	0x3ec69a14	0.38789427
124	0xbf27d1ee	-0.655547
125	0x3f4b5500	0.79426575
126	0xbdb42470	-0.087960124
127	0x3e4568c0	0.1927824

model.0.channel.2.weight f4 [1, 128]
0	0x3d51c1be	0.051210158
1	0x3dad464f	0.08460676
2	0xbc71a450	-0.014748648
3	0xbd8b35bf	-0.06797361
4	0x3d79b9c2	0.060968168
5	0xbd5b1deb	-0.05349533
6	0xbcc2d044	-0.02378095
7	0x3dad69a7	0.08467417
8	0x3d738a36	0.05945798
9	0x3d0fc984	0.03510429
10	0x3d7d0736	0.061774455
11	0x3c94ce28	0.01816471
12	0xbd9e14c9	-0.07718808
13	0x3d2cc8f2	0.042183824
14	0xbbb71e60	-0.005588338
15	0xbd7abf5d	-0.061217654
16	0x3c580830	0.013185546
17	0x3d8e7fbd	0.06957958
18	0xbccb7068	-0.024833873
19	0x3d40b14a	0.047044076
20	0x3d70950a	0.058735885
21	0xbd9fd331	-0.078039534
22	0xbd4bf8d7	-0.04979786
23	0xbc90427c	-0.017609827
24	0xba843000	-0.0010085106
25	0x3cfc2e24	0.03078372
26	0xbd75a904	-0.05997564
27	0xbcd4a432	-0.0259572
28	0x3ca06d6c	0.019583426
29	0xbcd3a9f8	-0.025837883
30	0x3cf479a4	0.029843159
31	0xbdb4acb2	-0.088220015
32	0x3da23b71	0.07921494
33	0xbd94c980	-0.072649956
34	0x3ca9f9f4	0.02074907
35	0xbce9f808	-0.028560653
36	0xbd949ff9	-0.07257075
37	0x3d87dd2d	0.06633983
38	0x3a9382c0	0.0011254176
39	0xbc9ec31c	-0.019380145
40	0xbd36622c	-0.044527218
41	0xbd937cab	-0.07201513
42	0xbd854572	-0.06507386
43	0x3d46bd46	0.04852035
44	0xbda18f8e	-0.07888709
45	0x3d6f2c0a	0.05839161
46	0x3d5e0f2e	0.054213695
47	0x3da0c0db	0.07849284
48	0x3d9981dd	0.074954726
49	0xbd55b110	-0.052170813
50	0xbd074fbc	-0.033035025
51	0x3b9fcd10	0.0048767403
52	0x3d5dda1e	0.05416309
53	0xbd9708ff	-0.07374763
54	0xbd14f6ff	-0.036368366
55	0xbcb5c004	-0.022186287
56	0xbc728540	-0.014802277
57	0x3ca8b6a8	0.02059491
58	0x3bcee1b0	0.006313525
59	0x3d8eb223	0.06967571
60	0x3cb9a00c	0.022659324
61	0xbd40be08	-0.047056228
62	0xbcf3e12c	-0.029770456
63	0xbd8050d5	-0.062654175
64	0x3c439cb0	0.011939213
65	0x3c8742f4	0.016511418
66	0xbcacab90	-0.021077901
67	0x3da05299	0.07828254
68	0x3d2339b2	0.039849944
69	0xbd33ce7c	-0.04389809
70	0xbc9b43cc	-0.018953227
71	0xbb2dde20	-0.0026530102
72	0xbd9bc5bd	-0.07606075
73	0x3d8692ad	0.06570945
74	0x3d35782a	0.04430405
75	0xbdb1a988	-0.08674914
76	0x3cada648	0.021197453
77	0xbd3e172d	-0.04640882
78	0xbd881c9e	-0.06646083
79	0x3cb1eff4	0.021720864
80	0xbd07bfa0	-0.033141732
81	0xbd92dca0	-0.07170987
82	0x3d8ad519	0.067789264
83	0x3db07e3f	0.086178295
84	0xbda53d9c	-0.08068392
85	0x3c9ff464	0.019525714
86	0x3bf95b30	0.0076097474
87	0xbbd82a60	-0.0065968484
88	0xbd563d61	-0.05230463
89	0xbda63b18	-0.0811674
90	0xbd1441a5	-0.036195416
91	0xbd9248b6	-0.07142775
92	0x3d100e8e	0.03517013
93	0x3c80f8d4	0.01574365
94	0xbd959e72	-0.07305612
95	0xbd1a113c	-0.037614092
96	0x3da40097	0.08007925
97	0xbcc00664	-0.023440547
98	0x3db2e22d	0.08734546
99	0x3d0d4a4a	0.034494676
100	0x3d01135e	0.03151261
101	0xbd7511fc	-0.059831604
102	0x3daf3051	0.085541375
103	0xbd3e9ebe	-0.046538107
104	0xbd05ab2f	-0.032633957
105	0x3d21adf2	0.039472528
106	0xbd9e5ce8	-0.07732564
107	0xbb339380	-0.002740115
108	0xbba9feb0	-0.005187832
109	0x3d2a9c2e	0.04165285
110	0x3d800f1d	0.06252883
111	0x3b873bb0	0.0041269884
112	0xbdb3078c	-0.08741674
113	0xbcc16054	-0.023605503
114	0xba229f00	-0.00062035024
115	0x3db48cf7	0.088159494
116	0x3c4a3e18	0.012343906
117	0xbd8683d4	-0.06568113
118	0xbd6e1478	-0.05812499
119	0xbc6abc10	-0.014327064
120	0xbd9104dd	-0.07081006
121	0xbd9ee533	-0.0775856
122	0xbda7f1cb	-0.08200415
123	0xbd864f24	-0.065580636
124	0xbda36de4	-0.07979944
125	0x3cc9a554	0.024614967
126	0xbd3dd690	-0.0463472
127	0x3d1a43c2	0.037662275

projection.weight f4 [1, 24]
0	0x3ddee397	0.10883253
1	0xbdb994b4	-0.09061566
2	0x3a8e0cbb	0.0010837534
3	0x3d092550	0.03348285
4	0xbda4a644	-0.08039525
5	0xbc65901f	-0.014011412
6	0x3e523a3b	0.20530026
7	0x3e5b35a2	0.21407178
8	0x3e0e60da	0.13904133
9	0xbe2ddd2b	-0.169789
10	0x3d3f49c3	0.046701204
11	0x3e00cb79	0.12577619
12	0x3e138c42	0.14408973
13	0xbdb185f9	-0.086681314
14	0x3df88a7b	0.12135788
15	0xbdcc66ee	-0.0998057
16	0x3e436300	0.19080734
17	0x3e43b7e0	0.19113111
18	0xbdddfa82	-0.10838796
19	0xbe2aa8f0	-0.16666007
20	0xbb28a746	-0.0025734468
21	0x3de9af3d	0.11410377
22	0x3d87cfe7	0.06631451
23	0x3db577db	0.08860751
