checkpoints_/ts_setting_5/checkpoint.pth (torch, 30882 bytes, 8 tensors)

model.0.temporal.0.weight f4 [128, 24]
0	0x3ca6c928	0.02035959
1	0x3e3adb96	0.18247828
2	0xbe090192	-0.13379505
3	0x3ca1f4b8	0.019770011
4	0x3cf992a8	0.030465439
5	0xbdff8ed6	-0.12478416
6	0xbd419590	-0.047261775
7	0xbdddfa26	-0.10838728
8	0xbd7a5564	-0.06111659
9	0xbd7d310c	-0.061814353
10	0xbbd08940	-0.0063640177
11	0x3de77288	0.11301142
12	0x3e3f67b8	0.1869191
13	0x3e341a7e	0.17588231
14	0x3deb2264	0.11481169
15	0xbd9f7e2e	-0.07787739
16	0xbdc0403f	-0.09387254
17	0xbd9a7424	-0.07541683
18	0x3d8557c8	0.065108836
19	0xbc0b79f0	-0.008512959
20	0xbdc44969	-0.095843144
21	0xbe4986c9	-0.19680323
22	0xbd6b91c0	-0.057512045
23	0xbe43b8c9	-0.19113459
24	0xbda19f4e	-0.07891713
25	0xbd370fc4	-0.04469277
26	0x3ddd9b3c	0.10820624
27	0x3dab05e4	0.08350733
28	0xbd6214dc	-0.055195674
29	0xbc944570	-0.018099517
30	0xbd78a62c	-0.06070535
31	0x3e3fe850	0.18740964
32	0xbc9daf20	-0.019248545
33	0x3d4d6390	0.05014378
34	0x3e48262e	0.19545814
35	0xbe057afc	-0.13035196
36	0xbe2623ff	-0.16224669
37	0x3d8eeeb0	0.0697912
38	0x3ca2c3a8	0.019868687
39	0x3c4ee950	0.012628868
40	0xbe1e7198	-0.1547302
41	0xbe3e5f9b	-0.18591158
42	0x3e079f7c	0.13244432
43	0xbe12e3d9	-0.1434473
44	0xbd9e3c50	-0.077263474
45	0x3d8e119c	0.069369525
46	0x3dfcf05c	0.123505324
47	0x3dda2eec	0.10653481
48	0x3e4654d6	0.193683
49	0xbd1fbab8	-0.03899643
50	0xbe2e5660	-0.17025137
51	0xbd0f1318	-0.03493032
52	0xbd33e954	-0.04392369
53	0x3e065178	0.13117015
54	0xbe29045a	-0.16505566
55	0x3d1c183c	0.03810905
56	0x3ced53a0	0.02897054
57	0xbe1161a8	-0.14197409
58	0xbe3dc04e	-0.1853039
59	0x3e349bc0	0.17637539
60	0x3e36ad6a	0.1783959
61	0x3843e000	4.670024e-05
62	0xbc3bab40	-0.011454403
63	0x3b9f1920	0.00485529
64	0xbd428174	-0.047486737
65	0xbd6df86c	-0.05809824
66	0xbe0848db	-0.13309042
67	0xbde9e01a	-0.11419697
68	0x3d85a75c	0.06526062
69	0x3cb3a898	0.021930978
70	0x3deaed14	0.11471
71	0x3e30bb34	0.17258912
72	0xbd8bbcf2	-0.06823148
73	0xbe49322a	-0.19648042
74	0x3def66a4	0.11689499
75	0xbd9e3aa0	-0.077260256
76	0x3df00660	0.11719966
77	0x3d9ae7c4	0.07563737
78	0x3e45576a	0.19271627
79	0xbe37ba7a	-0.17942229
80	0x3e036d44	0.1283465
81	0xbd663fd0	-0.0562132
82	0xbe27e7e7	-0.16397057
83	0x3d9f4f94	0.0777885
84	0x3d9817cc	0.07426414
85	0xbd8be074	-0.068299204
86	0xbc8d29b0	-0.017231792
87	0xbe4f1e4d	-0.20226403
88	0xbc30b250	-0.0107847005
89	0xbe044782	-0.12917903
90	0xbe3a251f	-0.18178223
91	0x3dc1729c	0.09445688
92	0xbe131573	-0.14363651
93	0x3e2dc46c	0.1696946
94	0x3de44818	0.11146563
95	0x3d18b21c	0.037279233
96	0xbd9087d4	-0.07057157
97	0xbdaf2f43	-0.08553936
98	0xbd8e48d6	-0.06947486
99	0xbe103dfd	-0.14086147
100	0x3cddc970	0.027073592
101	0xbe1cdc74	-0.15318471
102	0x3e251ba6	0.16123828
103	0x3e1daf38	0.15398872
104	0x3e1fd9aa	0.15610376
105	0x3d3ca2a8	0.04605356
106	0xbda75be6	-0.08171825
107	0x3e0ee786	0.13955507
108	0xbd84fee4	-0.06493929
109	0x3e17febc	0.14843267
110	0xbd40f638	-0.047109812
111	0xbe1c9076	-0.15289482
112	0x3e204e7e	0.15654942
113	0x3c74e110	0.014946237
114	0x3b964460	0.0045857877
115	0xbe395419	-0.18098487
116	0xbd3c9048	-0.046036035
117	0xbc7d26b0	-0.015451118
118	0x3e46d8da	0.1941866
119	0xbe05e22c	-0.13074559
120	0x3c3cc910	0.011522546
121	0xbd886fb2	-0.06661929
122	0x3d602e48	0.054731637
123	0x3e232488	0.15931904
124	0x3e449670	0.19198012
125	0xbdcfaf33	-0.101408385
126	0xbe47fd6a	-0.19530264
127	0x3d0d99ec	0.03457062
128	0x3e17cbbe	0.14823815
129	0xbd840eb6	-0.064481184
130	0xbd8151e4	-0.063144475
131	0x3da9df38	0.08294529
132	0xbe0a8e9a	-0.1353096
133	0x3cb7a1c8	0.02241601
134	0x3db189f4	0.086688906
135	0x3d992fa4	0.0747979
136	0xbde2e5c9	-0.11078984
137	0x3d3ea930	0.04654807
138	0xbe2ac6e7	-0.16677438
139	0xbe149070	-0.14508224
140	0x3dc4ad04	0.096033126
141	0xbe005a0e	-0.12534353
142	0x3e178c12	0.14799526
143	0x3d4c10f8	0.04982087
144	0x3d6d56e0	0.05794418
145	0xba2df400	-0.0006635785
146	0x3dc1220c	0.09430322
147	0x3e481772	0.19540194
148	0x3d87bdc4	0.06627992
149	0x3d2e1f7c	0.042510495
150	0xbe32ed0c	-0.17473239
151	0xbdfd95f9	-0.12382121
152	0x3e354608	0.17702496
153	0x3df590e4	0.11990526
154	0x3d10c4dc	0.03534399
155	0xbe4df7ea	-0.20114103
156	0xbd8af748	-0.067854464
157	0x3de864d0	0.113473535
158	0x3e3d0abe	0.18461129
159	0x3e3d54c0	0.18489361
160	0xbd24f6f8	-0.04027459
161	0x3c0395d0	0.008031324
162	0x3e45ce8a	0.1931707
163	0xbd328cb4	-0.043591216
164	0x3dac7d78	0.08422369
165	0xbdd3311d	-0.10312102
166	0x3d682278	0.056673497
167	0xbca861d0	-0.020554453
168	0x3bbf67c0	0.0058412254
169	0x3d016fbc	0.0316007
170	0x3e201894	0.15634376
171	0xbe3ccec0	-0.18438244
172	0x3e349cba	0.17637911
173	0x3e1cdd56	0.15318808
174	0xbe4d9a33	-0.20078354
175	0xbe1b5515	-0.15169175
176	0xbd1fcc64	-0.03901328
177	0x3dc445c4	0.09583619
178	0xbe1f3ae4	-0.15549809
179	0x3dbfd73c	0.093672246
180	0xbe1eb847	-0.15499984
181	0x3c241200	0.010014057
182	0x3b58e3c0	0.0033094734
183	0xbd8cbb7a	-0.06871696
184	0xbe2ec9e4	-0.17069203
185	0x3df9ac14	0.121910244
186	0xbe1ec75f	-0.15505742
187	0xbc12d230	-0.008961245
188	0xbd1017f8	-0.03517911
189	0xbdb3e837	-0.08784526
190	0xbe2f2aaa	-0.17106119
191	0x3e0fc9de	0.1404185
192	0xbe03d990	-0.12875962
193	0xbdf28140	-0.11841059
194	0xbe29eefe	-0.16595075
195	0x3e12871a	0.1430935
196	0xbe02a838	-0.12759483
197	0xbcd295b0	-0.025706142
198	0x3d9502fc	0.0727596
199	0xbdabd69b	-0.08390542
200	0xbe407510	-0.18794656
201	0xbd7e6864	-0.062111273
202	0x3e155afa	0.14585486
203	0x3d42d788	0.047568828
204	0x3d5dc5e8	0.054143816
205	0x3e30509e	0.17218253
206	0xbdf1a9cc	-0.11799964
207	0x3e022ec6	0.12713155
208	0x3d2f48c4	0.042794004
209	0x3e0af4b2	0.13569906
210	0x3dc85fc8	0.09783894
211	0xbd4635b0	-0.048391044
212	0x3e22f500	0.15913773
213	0x3debcfac	0.1151422
214	0x3e175d7e	0.14781758
215	0x3e0fd73c	0.14046949
216	0x3d682958	0.056680053
217	0x3da344f8	0.07972139
218	0x3e0398ec	0.12851304
219	0xbd749ef8	-0.059721917
220	0x3de9b5b0	0.11411607
221	0x3cc2a0e8	0.023758367
222	0xbe23cabe	-0.15995309
223	0x3c9e5088	0.01932551
224	0xbe45bdef	-0.19310735
225	0x3d163d5c	0.03667961
226	0x3e0cfa0c	0.1376726
227	0xbde69866	-0.112595364
228	0x3cd9d880	0.026592493
229	0xbe0caa69	-0.13736881
230	0xbe3250b0	-0.17413592
231	0xbe4906ae	-0.19631454
232	0x3d4e60d0	0.050385296
233	0x3e354616	0.17702517
234	0xbe3a0e00	-0.18169403
235	0xbe474e7e	-0.19463536
236	0xbde4c0c2	-0.11169578
237	0xbdbe348e	-0.09287368
238	0x3e382b76	0.17985329
239	0xbdbf458b	-0.09339436
240	0x3d6432a8	0.055712372
241	0xbe4e2081	-0.20129587
242	0xbd2eab70	-0.042643964
243	0xbc948d70	-0.018133849
244	0xbd7679bc	-0.06017469
245	0xbd032124	-0.032014027
246	0xbe284fc4	-0.16436678
247	0xbe22f1f8	-0.15912616
248	0xbd8230a4	-0.06356934
249	0xbd8b7a74	-0.068104655
250	0x3e03cd60	0.12871313
251	0xbe13aa66	-0.1442047
252	0x3cf3d028	0.029762343
253	0xbd34f480	-0.044178486
254	0x3e46cefe	0.19414899
255	0xbe325217	-0.17414127

model.0.temporal.0.bias f4 [128]
0	0x3dfa7868	0.12229997
1	0x3e426cec	0.18986863
2	0xbe4a3878	-0.19748104
3	0x3e061cd6	0.13096938
4	0xbe33e464	-0.17567593
5	0xbda132c2	-0.078710094
6	0xbe3368c2	-0.1752043
7	0xbe02d258	-0.12775552
8	0x3d8d1fe8	0.06890851
9	0xbce98d20	-0.028509676
10	0xbd1853ec	-0.03718941
11	0xbe0458be	-0.12924477
12	0xbc823260	-0.015893161
13	0x3e097edc	0.134273
14	0x3bd1f2e0	0.006407127
15	0x3d0dccd4	0.034619167
16	0x3bfb06c0	0.007660717
17	0xbad86f80	-0.0016512722
18	0x3e0e2dd2	0.13884667
19	0x3d82c4dc	0.06385204
20	0xbe3b4d22	-0.18291143
21	0x3e2dd4ba	0.1697568
22	0xbbc4f420	-0.0060105473
23	0xbdeb9f02	-0.11504938
24	0x3e055a08	0.13022625
25	0x3db8e18c	0.09027395
26	0x3c6c1360	0.014408916
27	0xbd2407b4	-0.04004641
28	0x3d9e0b00	0.07716942
29	0x3e311e9e	0.17296836
30	0x3dd8cb4c	0.10585651
31	0xbe13a823	-0.14419608
32	0x3e0e80a6	0.13916263
33	0x3df34114	0.11877647
34	0xbcc00d90	-0.023443967
35	0xbe003a88	-0.12522328
36	0xbddaa6fd	-0.10676382
37	0xbb349e80	-0.0027560294
38	0x3e3da136	0.18518528
39	0xbbf4c280	-0.0074694753
40	0x3e43c698	0.19118726
41	0xbdb98165	-0.09057883
42	0x3e1da10c	0.15393466
43	0xbe498c56	-0.1968244
44	0xbdd5571a	-0.10417004
45	0xbdff4921	-0.1246512
46	0xbd879188	-0.06619555
47	0xbdc986a2	-0.09840132
48	0x3d440bc8	0.047862798
49	0xbe1478d1	-0.14499213
50	0xbc718410	-0.014740959
51	0x3df142e8	0.117803395
52	0x3e3028c0	0.17203045
53	0xbe3359ea	-0.17514768
54	0xbd956d5e	-0.07296251
55	0xbe244780	-0.160429
56	0x3e276466	0.16346893
57	0xbe229ea8	-0.15880835
58	0x3c9a80a0	0.018860161
59	0xbe1f066e	-0.15529796
60	0xbe234b76	-0.15946755
61	0x3e3b9e96	0.18322214
62	0x3d73f990	0.059564173
63	0x3c947228	0.01812084
64	0x3e45971c	0.19295925
65	0x3d93dbd8	0.07219666
66	0xbd99794c	-0.07493839
67	0x3e236dd6	0.15959868
68	0x3c95e780	0.018298864
69	0xbd0db294	-0.034594133
70	0xbe0082db	-0.12549917
71	0xbe2826bf	-0.1642103
72	0xbe429d73	-0.19005375
73	0x3dfcfa98	0.123524845
74	0xbd79d310	-0.0609923
75	0xbd7efa30	-0.062250316
76	0xbd82d4ae	-0.06388222
77	0xbd56b504	-0.052418724
78	0xbdf73553	-0.12070718
79	0x3e3d01d4	0.18457729
80	0x3e0fa6b6	0.14028439
81	0x3d1bbc00	0.038021088
82	0xbd7b3fa0	-0.061339974
83	0x3dfc5d38	0.123224676
84	0xbcef0f70	-0.029182166
85	0xbe4f1190	-0.20221543
86	0xbe41e99e	-0.18936774
87	0xbcf6cfd0	-0.03012839
88	0xbe46f945	-0.19431026
89	0xbd13c134	-0.036072925
90	0xbd93df4c	-0.07220325
91	0xbacdfb00	-0.0015715063
92	0x3c66ea60	0.014093965
93	0x3d8d34a4	0.06894806
94	0x3d9ce880	0.07661533
95	0x3da6bb18	0.08141154
96	0x3e2e09b8	0.16995895
97	0x3e19ea76	0.15030846
98	0xbc2062e0	-0.009789199
99	0x3e46d0a8	0.19415534
100	0x3e392f5c	0.18084472
101	0xbd4b4db0	-0.049634635
102	0xbdf7b26e	-0.1209458
103	0x3cb771c8	0.022393122
104	0xbdcfdd5e	-0.10149644
105	0x3d1e1b94	0.03860052
106	0xbe2ab6fb	-0.16671364
107	0x3c4b2e00	0.012401104
108	0x3c634e60	0.0138736665
109	0xbdb9ed84	-0.09078506
110	0x3d427d08	0.04748252
111	0xbc80b848	-0.015712872
112	0x3dfc5d28	0.12322456
113	0xbcd763a8	-0.026292637
114	0xbd1c0204	-0.03808786
115	0x3e21d2d2	0.15803078
116	0xbe1c23e2	-0.15248063
117	0xbe0bf899	-0.13669051
118	0x3e30a556	0.1725057
119	0xbd39a6e4	-0.045325175
120	0x3d97ac88	0.074059546
121	0x3e4a7352	0.19770554
122	0x3e1db734	0.15401918
123	0x3e23df68	0.16003191
124	0x3dce3cd0	0.10070193
125	0xbe41be59	-0.18920268
126	0xbd52b2bc	-0.051439986
127	0xbe22c39a	-0.15894929

model.0.temporal.2.weight f4 [24, 128]
0	0x3ca5df5c	0.020248108
1	0xbd362cd1	-0.044476334
2	0xbc94ceb8	-0.018164977
3	0x3d5173ae	0.05113571
4	0xbbcb2a60	-0.00620012
5	0x3d459f5a	0.048247673
6	0xbc287050	-0.010280684
7	0xbc3fca10	-0.01170589
8	0xbc314560	-0.010819763
9	0xbd4886a3	-0.048956525
10	0xbb3404a0	-0.0027468577
11	0x3dabdce7	0.08391743
12	0x3d8b62e7	0.068059735
13	0x3c801870	0.015636653
14	0xbd80f869	-0.062973805
15	0xbd30bff6	-0.04315182
16	0xbc9d60a0	-0.019211113
17	0xbcb3d464	-0.021951862
18	0x3d788bf6	0.060680352
19	0xbd636bbc	-0.055522665
20	0x3daf172d	0.08549342
21	0x3da94627	0.082653336
22	0x3d72dd9e	0.059293382
23	0x3db424a5	0.08796052
24	0x3d0af324	0.033923283
25	0x3d993de5	0.074825086
26	0x3c391378	0.011296146
27	0x3c170fa8	0.009220041
28	0xbd92f9ff	-0.07176589
29	0x3c365c40	0.011130393
30	0x3ba02200	0.0048868656
31	0x3d30a29a	0.04312382
32	0x3d0ec654	0.03485711
33	0xbd629ec6	-0.0553272
34	0x3d2182b2	0.03943128
35	0x3cab3aec	0.02090212
36	0x3cee72e4	0.029107518
37	0x3d8915bd	0.066935994
38	0xbd1865f4	-0.037206605
39	0x3c2e8fa8	0.0106543675
40	0xbc7d2878	-0.015451543
41	0x3cb889d4	0.02252666
42	0xbbd0fd90	-0.0063778833
43	0x3cedf6e4	0.02904839
44	0xbd4f18b3	-0.050560664
45	0x38e46000	0.000108897686
46	0x3d82ee5d	0.063931204
47	0x3d7a1a42	0.061060198
48	0x3b5e1e00	0.0033892393
49	0xbd0f06a4	-0.034918442
50	0x3cef5fdc	0.029220514
51	0x3d794baa	0.060863174
52	0x3d55a262	0.052156813
53	0xbd55dc84	-0.052212253
54	0x3d3aca16	0.04560288
55	0x3c3a2498	0.011361264
56	0x3d5b8cb6	0.05360099
57	0xbcd0a778	-0.02547048
58	0xbc7d89f0	-0.015474781
59	0x3da908ff	0.08253669
60	0xbd8e2106	-0.069398925
61	0xb8ec1c00	-0.00011258572
62	0x3d75915e	0.059953086
63	0xbba83bb0	-0.0051340684
64	0x3d904875	0.0704507
65	0xbd3db990	-0.046319544
66	0xbd666a70	-0.05625385
67	0xbd3098fe	-0.043114655
68	0x3d55c0a6	0.052185677
69	0x3c4fabf8	0.012675278
70	0x3cd2b9a4	0.025723286
71	0xbce2e6d0	-0.02769795
72	0x3d648372	0.05578942
73	0xbdaab7f0	-0.083358645
74	0x3dafa883	0.08577063
75	0xbcdf0384	-0.027223356
76	0xbce73926	-0.028225493
77	0x3b7a7220	0.0038214996
78	0x3d865c97	0.06560629
79	0xbda0143e	-0.07816361
80	0x3ccc8a68	0.024968341
81	0xbd88ec70	-0.06685722
82	0xbc125560	-0.008931488
83	0x3c1668b8	0.00918024
84	0x3c8da020	0.017288268
85	0xbd1f326e	-0.038866453
86	0x3b16d940	0.0023017675
87	0x3d010768	0.031501204
88	0xbd51f6b6	-0.051260673
89	0x3c2116f0	0.009832129
90	0xbce7520c	-0.028237365
91	0xbda46c38	-0.080284536
92	0x3d408ece	0.04701119
93	0x3d74aeea	0.059737124
94	0x3c13d710	0.009023443
95	0x3d4b661e	0.049657933
96	0xbc4d4880	-0.012529492
97	0x3d1cc32e	0.038272075
98	0xbbef7c00	-0.007308483
99	0x3d61c0aa	0.05511538
100	0x3da5562b	0.08073076
101	0xbbf78500	-0.0075536966
102	0xbd70878e	-0.058723025
103	0xbb5e0de0	-0.0033882782
104	0x3c8acce8	0.01694341
105	0x3d99d30b	0.075109564
106	0xbc96218c	-0.018326543
107	0xbd6c5868	-0.0577015
108	0xbd323a52	-0.04351265
109	0xbc047b30	-0.008086011
110	0x3da0acdb	0.078454696
111	0x3d6f96c2	0.058493383
112	0x3d81d87b	0.063401185
113	0x3d1905a2	0.037358887
114	0x3d699576	0.057027303
115	0xbd8adf70	-0.067808986
116	0xbd8c39ba	-0.06846948
117	0x3c2de1c0	0.010612905
118	0xbb461360	-0.003022395
119	0x3d9d226b	0.0767258
120	0x3d1872fe	0.03721904
121	0xbd80d70c	-0.06291017
122	0xbda25bf6	-0.079276964
123	0x3bbf74b0	0.0058427677
124	0xbd9dd134	-0.07705918
125	0xbc8761a0	-0.016526043
126	0xbbef3df0	-0.0073010847
127	0x3d77fc52	0.060543366
128	0xbd9135aa	-0.07090314
129	0x3cada0a0	0.021194756
130	0x3d96ab6f	0.07356917
131	0x3c4571c0	0.012051046
132	0x3d9a7c61	0.07543255
133	0xbda3cffa	-0.07998653
134	0x3d5d4de2	0.054029353
135	0xbd05d608	-0.03267482
136	0xbc7e73e8	-0.015530564
137	0xbd9421ca	-0.07233007
138	0xbcea15b6	-0.028574806
139	0x3d859725	0.06522969
140	0x3d68cf7e	0.056838505
141	0x3d96b947	0.073595576
142	0x3db2f309	0.087377615
143	0x3d9cecd7	0.07662361
144	0xbd9be7e4	-0.07612589
145	0x3d477652	0.048696823
146	0x3d72b612	0.059255667
147	0x3c01f7b8	0.007932596
148	0x3d2fe1c6	0.042939924
149	0xbd26aa83	-0.040689956
150	0xbc6c51f8	-0.01442384
151	0xbbf1c880	-0.007378638
152	0x3bcc7d00	0.006240487
153	0x3d861edb	0.06548854
154	0xbd0b80f0	-0.03405851
155	0x3d96dcd9	0.07366342
156	0x3d52bf0a	0.05145172
157	0xbd8d2499	-0.06891746
158	0xbd8f9ab9	-0.07011933
159	0xbdaa4bed	-0.08315263
160	0x3c18e5f8	0.009332173
161	0xbd4a63c2	-0.049411543
162	0x3d3e17fe	0.0464096
163	0xbd49c7b8	-0.049262732
164	0xbcc92aec	-0.0245566
165	0xbd61922f	-0.055071052
166	0x3d9674d1	0.073465
167	0xbc2aaee0	-0.01041767
168	0x3cdb7fac	0.026794277
169	0x3d50203a	0.050811984
170	0x3d6078ea	0.054802813
171	0xbd334c83	-0.04377414
172	0x3cb68f88	0.022285238
173	0x3b242940	0.0025049
174	0x3a9d9580	0.0012022704
175	0xbd3b0115	-0.04565533
176	0x3c285bc8	0.010275789
177	0x3d8c6f33	0.06857147
178	0xbd97858d	-0.0739852
179	0x3d9caa57	0.07649677
180	0xbda0d890	-0.07853806
181	0x3da9e7b7	0.08296149
182	0xbd5531dc	-0.052049503
183	0xbd7fe8d6	-0.06247791
184	0x3d85367f	0.06504535
185	0xbc330658	-0.010926805
186	0x3d189396	0.037250124
187	0x3d5b701a	0.053573705
188	0x3d4ca726	0.049964093
189	0x3cae567c	0.021281473
190	0x3d0606f4	0.032721475
191	0x3d471cde	0.048611514
192	0xbd85b914	-0.065294415
193	0xbd58af99	-0.052901838
194	0xbcd7922c	-0.026314817
195	0xbcae2bb8	-0.021261081
196	0xbcfe9fbc	-0.031082027
197	0x3d824d39	0.06362385
198	0x3d2d4a22	0.042307027
199	0x3d2d3d66	0.042294882
200	0xbd718044	-0.058960214
201	0xbbe20b80	-0.0068983436
202	0x3d8790b1	0.066193946
203	0xbd979588	-0.07401568
204	0x3ca65efc	0.020308964
205	0xbd8c6a3a	-0.068561986
206	0x3c7af5a8	0.015317358
207	0x3cafa6e4	0.021441884
208	0xbce03bfc	-0.027372353
209	0x3d927479	0.07151122
210	0xbcedb5f6	-0.02901743
211	0x3cd2a188	0.02571179
212	0xbd5c6185	-0.05380394
213	0x3db4d64d	0.08829937
214	0xbd9fb0d5	-0.077974
215	0xbd581376	-0.052752934
216	0xbd7c56fa	-0.061606385
217	0xbcb34ce4	-0.02188725
218	0xbc864d58	-0.016394302
219	0xbdb4b3ad	-0.08823333
220	0xbc922a7c	-0.017842524
221	0xbd9064e2	-0.07050492
222	0x3b590c80	0.0033119023
223	0xbd63f02a	-0.05564896
224	0x3c82c3a8	0.015962437
225	0xbdac2b1d	-0.08406661
226	0xbd82fd7a	-0.06396003
227	0xbd1fd9d4	-0.039026096
228	0xbd5528fa	-0.05204103
229	0xbd2795f2	-0.040914483
230	0x3bef5080	0.0073032975
231	0x3dad341f	0.08457207
232	0x3cee1058	0.029060528
233	0x3d79eb72	0.061015554
234	0xbc8fe100	-0.017563343
235	0x3cef8358	0.029237434
236	0x3d2a9f1a	0.041655637
237	0xbd01fb70	-0.03173393
238	0x3cc7ead0	0.02440396
239	0xbcc7183c	-0.024303548
240	0xbccb9de0	-0.024855554
241	0x3d03b50a	0.032155074
242	0xbc906058	-0.017624065
243	0x3c13ed60	0.009028763
244	0x3c2c4cf0	0.01051639
245	0x3d9d345f	0.076760046
246	0xbbae1400	-0.005312443
247	0xbc7feb10	-0.015620008
248	0xbbaab480	-0.0052095056
249	0xbdab5713	-0.083662175
250	0x3d9573d3	0.07297482
251	0x3d486dc6	0.048932813
252	0xbb483ba0	-0.0030553117
253	0x3db046bd	0.08607242
254	0x3c49c698	0.012315415
255	0xbd4b0190	-0.049562037

model.0.temporal.2.bias f4 [24]
0	0xbcabe254	-0.020981945
1	0x3d26a43e	0.040683977
2	0x3c380b00	0.011233091
3	0x3778c000	1.4826655e-05
4	0x3d8b601d	0.068054415
5	0x3da0ac6b	0.07845386
6	0x3c4614c0	0.012089908
7	0x3cd8e94c	0.026478432
8	0xbd5e0922	-0.05420793
9	0xbda69ae1	-0.081350096
10	0x3d3c533e	0.045977823
11	0xbda1a1e3	-0.078922056
12	0xbd9850a0	-0.07437253
13	0x3dacfc39	0.08446545
14	0xbd6afca2	-0.057369836
15	0xbd8052b8	-0.06265777
16	0xbb9f2e30	-0.004857801
17	0x3d0a0b36	0.033702098
18	0xbdaf9fca	-0.08575399
19	0xbd9a7279	-0.07541365
20	0xbd94f048	-0.072723925
21	0x3d6753f2	0.05647654
22	0xbd9855c0	-0.074382305
23	0xbd87c5fc	-0.066295594

model.0.channel.0.weight f4 [128, 1]
0	0xbd8534d0	-0.06504214
1	0x3d6151e0	0.055009723
2	0xbed298ac	-0.41132104
3	0xbdd22b80	-0.10262203
4	0x3f235c38	0.6381259
5	0x3ee2d2e8	0.44301534
6	0xbf04c1d2	-0.51858246
7	0x3f18a18e	0.5962151
8	0x3f440494	0.76569486
9	0x3d92e3f0	0.07172382
10	0x3da229b0	0.079181075
11	0x3e1402c0	0.14454174
12	0xbea1a120	-0.3156824
13	0xbf1155ee	-0.56771743
14	0x3cfe5300	0.031045437
15	0x3f747402	0.95489514
16	0xbf45d210	-0.77273655
17	0x3f6a2a48	0.91470766
18	0x3f783de2	0.96969426
19	0x3e6f3900	0.23361588
20	0x3d8c0490	0.06836808
21	0x3e4d5260	0.20050955
22	0x3e1b2a08	0.15152752
23	0x3dfbba70	0.122914195
24	0x3f1a514c	0.602803
25	0x3ea9eab0	0.33186865
26	0x3f0139a4	0.5047858
27	0x3f02ad56	0.5104574
28	0xbf2bdbdc	-0.67132354
29	0xbf44f0b6	-0.76929796
30	0x3edf5818	0.43621898
31	0x3d413580	0.047170162
32	0xbeba658c	-0.364056
33	0xbeebe7e0	-0.46075344
34	0x3ebc3010	0.3675542
35	0xbe0c6118	-0.13708913
36	0x3f6c3376	0.92266023
37	0xbf4f7ff2	-0.81054604
38	0xbe9e499c	-0.30915534
39	0x3e93a918	0.28839946
40	0xbd596320	-0.05307305
41	0xbe6f9298	-0.23395765
42	0xbf718fe0	-0.9436016
43	0x3eef4158	0.4672954
44	0xbed3d430	-0.41372824
45	0xbe00e870	-0.12588668
46	0xbf4f1ca0	-0.80903053
47	0x3f459a8c	0.77188945
48	0xbf7055e8	-0.9388108
49	0x3ed751b0	0.4205451
50	0x3f4e8fea	0.80688345
51	0x3f731584	0.94954705
52	0xbeabc888	-0.3355143
53	0xbee38ad0	-0.44441843
54	0xbf3ac854	-0.72961926
55	0x3ed95a4c	0.42451704
56	0x3e78be60	0.24291372
57	0xbee21d38	-0.44162917
58	0x3f583238	0.8445163
59	0xbf57b320	-0.842577
60	0xbf6797d6	-0.9046606
61	0xbf7e7b82	-0.9940721
62	0xbf43a7e2	-0.76428044
63	0xbf3275ac	-0.69710803
64	0xbf1917ca	-0.59801924
65	0x3ed92c00	0.42416382
66	0x3f7b91b8	0.98269224
67	0x3f61f1a6	0.8825935
68	0x3e867bc0	0.2626629
69	0x3eea86a8	0.4580586
70	0x3f35e060	0.71045494
71	0xbec3728c	-0.3817333
72	0x3ef1cc74	0.47226298
73	0xbf7cb2d8	-0.98710394
74	0x3f039a34	0.5140717
75	0x3ea3cbdc	0.3199147
76	0x3d7ef200	0.062242508
77	0x3f6e0b8c	0.9298637
78	0xbf5253b6	-0.8215898
79	0x3e8ed5ac	0.27897394
80	0x3f66c6f6	0.9014734
81	0xbe357260	-0.17719412
82	0x3f1601a0	0.5859623
83	0xbe728258	-0.23682535
84	0xbdd25d30	-0.1027168
85	0x3e8a7500	0.2704239
86	0xbe83617c	-0.25660312
87	0x3ef83b0c	0.4848255
88	0xbf558bda	-0.8341652
89	0xbf349514	-0.70539975
90	0x3ec641a0	0.38721943
91	0xbf1cbd3c	-0.6122625
92	0x3d6022e0	0.05472076
93	0xbedf54ac	-0.43619287
94	0x3eb47350	0.35244226
95	0xbd6c4a80	-0.057688236
96	0x3e1dcc90	0.15410066
97	0x3cb4c000	0.022064209
98	0xbf6da7ee	-0.92834365
99	0xbf78dbe6	-0.9721054
100	0x3a54d800	0.0008119345
101	0xbc862740	-0.016376138
102	0xbed58910	-0.41706133
103	0xbe6fbe10	-0.23412347
104	0x3d996a50	0.074909806
105	0xbf302ed0	-0.6882143
106	0x3f52500e	0.82153404
107	0xbf2aeada	-0.66764605
108	0x3e723080	0.23651314
109	0x3f488060	0.78320885
110	0xbee19a40	-0.44062996
111	0xbed7cbbc	-0.42147624
112	0x3cd83f80	0.026397467
113	0x3ec427c4	0.3831159
114	0x3eedb8e0	0.4643011
115	0x3f668064	0.9003966
116	0xbd2fe0e0	-0.042939067
117	0xbd576fe0	-0.052596927
118	0x3f3b909c	0.7326753
119	0xbeae8fc8	-0.3409407
120	0x3eff6da4	0.49888337
121	0xbf7aa79c	-0.97912
122	0xbdb634c0	-0.0889678
123	0x3e708878	0.23489559
124	0xbe0c0678	-0.13674343
125	0xbeb97020	-0.36218357
126	0x3e53a0a8	0.20666754
127	0xbeb66d4c	-0.35630262

model.0.channel.0.bias f4 [128]
0	0x3e95a298	0.29225612
1	0xbf5430b2	-0.82886803
2	0x3f7081da	0.9394814
3	0xbe2568f0	-0.16153312
4	0xbe9f81d8	-0.3115375
5	0xbeea7418	-0.45791698
6	0xbf32fe66	-0.6991943
7	0xbf32de38	-0.6987033
8	0x3d01d3c0	0.03169608
9	0xbee31da8	-0.44358563
10	0xbe814810	-0.25250292
11	0xbf3a928a	-0.7287985
12	0x3f51263c	0.81698966
13	0xbf1f6470	-0.6226263
14	0x3e8d3de8	0.27586293
15	0xbf41223c	-0.7544286
16	0x3f2ac028	0.6669946
17	0xbe1e3500	-0.15449905
18	0x3e9eb0b0	0.30994177
19	0xbd815360	-0.06314731
20	0x3f3806f0	0.71885586
21	0xbe8c79bc	-0.27436626
22	0x3e914db4	0.28379595
23	0xbe37fff0	-0.17968726
24	0xbf43a506	-0.7642368
25	0x3eaf8334	0.34279788
26	0xbf6ccd6e	-0.9250096
27	0xbf0a800c	-0.54101634
28	0x3da2d530	0.079508185
29	0xbe23b920	-0.15988588
30	0x3ea8aa88	0.32942605
31	0x3c6a5500	0.014302492
32	0x3f676228	0.9038415
33	0x3ea047b4	0.31304705
34	0xbd3c7060	-0.046005607
35	0xbdff6e00	-0.12472153
36	0xbeee27cc	-0.46514738
37	0x3ef7fcac	0.4843496
38	0xbf72f56e	-0.94905746
39	0xbf408bd2	-0.7521335
40	0x3f6f18f2	0.9339744
41	0x3c988780	0.018619299
42	0xbf01e1a8	-0.5073495
43	0x3e1fe1a0	0.15613413
44	0x3f51a92e	0.8189877
45	0xbd00a2c0	-0.03140521
46	0x3f351656	0.70737207
47	0x3e901a88	0.28145242
48	0x3f1a53b8	0.60283995
49	0x3e601238	0.2188195
50	0x3f5c880e	0.861451
51	0xbf2e1f64	-0.6801665
52	0xbf2770a8	-0.65406275
53	0xbf54916a	-0.83034384
54	0x3f050ad8	0.5196967
55	0xbf06b428	-0.52618647
56	0xbeb020a0	-0.3439989
57	0x3f0137d2	0.504758
58	0x3f50b402	0.8152467
59	0x3f478f76	0.7795328
60	0x3e9a9e34	0.30198824
61	0x3c9ab980	0.018887281
62	0xbf4cd702	-0.80015576
63	0x3ed42d30	0.41440725
64	0xbf3e2ad2	-0.7428409
65	0xbef6fc70	-0.4823947
66	0x3e6bf640	0.23043156
67	0xbf55007a	-0.8320385
68	0xbe98fe9c	-0.29881752
69	0x3e9c14e8	0.304847
70	0xbda40470	-0.08008659
71	0xbf111eb8	-0.566875
72	0x3f630cd4	0.8869145
73	0x3f46014c	0.7734573
74	0xbdb23e20	-0.08703256
75	0xbe20aa48	-0.15689957
76	0x3ed4384c	0.414492
77	0x3e2383e0	0.15968275
78	0x3f7f6c38	0.99774504
79	0xbf68f58a	-0.9099966
80	0xbf6a0642	-0.914158
81	0x3f7f809a	0.99805605
82	0x3eefccc4	0.4683591
83	0xbe5b28d8	-0.214023
84	0xbe877e48	-0.26463532
85	0x3e9a18d8	0.3009708
86	0xbf7398c8	-0.95155
87	0xbec07ca0	-0.3759508
88	0xbea195a8	-0.3155949
89	0x3f539962	0.8265592
90	0xbf47d762	-0.78063023
91	0xbe9c8d48	-0.3057654
92	0xbf16d1f0	-0.5891409
93	0x3ebb5fa0	0.36596394
94	0xbeea3d38	-0.4574983
95	0xbc2e2a80	-0.01063025
96	0xbf1c2ea2	-0.61008656
97	0xbf3e7e2a	-0.7441126
98	0xbe5cb780	-0.21554375
99	0x3e86f860	0.2636137
100	0x3f01de7e	0.5073012
101	0xbf46f17e	-0.7771224
102	0xbca5c940	-0.020237565
103	0xbe4569b0	-0.19278598
104	0xbdea8f70	-0.1145314
105	0xbe37f440	-0.17964268
106	0xbdab8820	-0.08375573
107	0x3f7db786	0.9910816
108	0x3e81f410	0.25381517
109	0x3f41c3ca	0.75689375
110	0xbe94040c	-0.28909338
111	0x3f1442f0	0.5791464
112	0xbdd1f610	-0.10252011
113	0xbf54e134	-0.8315613
114	0x3eb7b6a4	0.3588153
115	0xbe707cb0	-0.23485065
116	0xbe28a578	-0.16469371
117	0x3f01f7b4	0.5076859
118	0x3e677a40	0.22605228
119	0xbf56e850	-0.8394823
120	0xbf066c1e	-0.52508724
121	0xbe537ca8	-0.20653021
122	0xbf75a39e	-0.95952785
123	0x3f359e14	0.70944333
124	0x3f70f380	0.9412155
125	0x3b3b5000	0.002858162
126	0x3dfd2190	0.12359917
127	0x3f795386	0.9739307

model.0.channel.2.weight f4 [1, 128]
0	0xbcac84a8	-0.02105935
1	0xbd4d19b2	-0.050073333
2	0xbcb1c8bc	-0.021702163
3	0x3c502728	0.012704648
4	0x3d08e616	0.033422552
5	0x3c96c2c4	0.018403418
6	0x3d302dda	0.043012477
7	0xbd08715a	-0.033311225
8	0xbd0d5b3d	-0.03451084
9	0xbcc18090	-0.023620874
10	0x3d7a837a	0.061160542
11	0xbd871ca8	-0.065972626
12	0xbd29839b	-0.041385274
13	0xbd84e230	-0.06488454
14	0x3db01f5b	0.085997306
15	0x3cb0e050	0.021591336
16	0x3d8a4377	0.06751149
17	0x3d15d282	0.03657771
18	0xbd1e10d1	-0.038590256
19	0xb9b5fc00	-0.00034710765
20	0xbd8521cc	-0.06500587
21	0xbd548fca	-0.05189494
22	0xbc2d8940	-0.010591805
23	0xbd756711	-0.059912745
24	0x3d7915e2	0.060811885
25	0x3d7ec726	0.06220164
26	0xbd201988	-0.03908685
27	0xbcc255c8	-0.023722544
28	0xbd3a3ae8	-0.045466334
29	0x3d9753a3	0.07388999
30	0x3c39d7c0	0.011342943
31	0x3d7e97ee	0.06215661
32	0x3ce3878c	0.027774595
33	0x3d95d1e1	0.07315422
34	0xbd29d3be	-0.0414617
35	0xbb6dce00	-0.0036286116
36	0xbcde1c44	-0.027113087
37	0xbcf17674	-0.029475428
38	0x3d89dee1	0.06731964
39	0x3d1e878a	0.03870348
40	0x3ba00a10	0.004884012
41	0xbd9279bc	-0.07152125
42	0xbd9d2a19	-0.07674045
43	0x3d81316d	0.06308255
44	0xbdab3e8e	-0.08361541
45	0xbccc31e4	-0.024926133
46	0x3cb90b98	0.022588536
47	0xbd84dc95	-0.06487385
48	0x3daa09fb	0.08302685
49	0x3d8bacdb	0.06820079
50	0xbd4e179f	-0.050315496
51	0x3d9725c7	0.07380252
52	0x3cd841a0	0.02639848
53	0x3d424bb2	0.04743547
54	0x3da900ef	0.08252131
55	0xbd5d00fc	-0.053956017
56	0x3c432940	0.01191169
57	0x3d9002bf	0.07031774
58	0x3d87f5bb	0.06638666
59	0xbc995da4	-0.01872141
60	0xbcc2f0e8	-0.023796514
61	0x3d8e0a05	0.06935505
62	0x3cfa746c	0.030573092
63	0x3d910c0f	0.07082378
64	0x3da57d9d	0.080805995
65	0xbd609389	-0.0548282
66	0x3d0d1dee	0.03445237
67	0xbda5a559	-0.08088178
68	0xbd23f080	-0.04002428
69	0x3d080900	0.033211708
70	0xbcb3f000	-0.021965027
71	0xbb4ed9a0	-0.003156282
72	0x3ba08cb0	0.0048995838
73	0xbd3f6888	-0.04673055
74	0x3d01f358	0.03172621
75	0xbd16705f	-0.03672826
76	0xbd930ef3	-0.07180586
77	0xbd0ecb09	-0.0348616
78	0x3ce8aeec	0.028403722
79	0x3dadd989	0.08488757
80	0x3d20465e	0.039129607
81	0xbd3f3654	-0.04668267
82	0x3cd38188	0.025818601
83	0x3d629132	0.05531425
84	0x3c9496a8	0.018138245
85	0xbd31f193	-0.043443274
86	0xbdab073c	-0.08350989
87	0xbd168078	-0.03674361
88	0x3d8b45c7	0.06800418
89	0x3d9b47f1	0.07582081
90	0xbda12bff	-0.0786972
91	0xbc85fa90	-0.01635483
92	0x3db2ff5f	0.087401144
93	0xbcdaf176	-0.026726466
94	0xbd73ea1a	-0.05954943
95	0x3a530680	0.000804998
96	0x3d3061d2	0.04306204
97	0xbd3a006a	-0.04541055
98	0xbd6240c9	-0.055237565
99	0x3d73f90e	0.05956369
100	0x3da79daf	0.08184373
101	0x3d090422	0.033451207
102	0x3d05f782	0.032706745
103	0xbd52f621	-0.051504258
104	0xbd839486	-0.06424813
105	0x3da22ab5	0.07918302
106	0xbcac2284	-0.021012552
107	0x3dad9fd9	0.08477754
108	0x3da87b5b	0.08226653
109	0xbd93f50f	-0.072244756
110	0x3c2bf528	0.0104954615
111	0x3da432ff	0.08017539
112	0x3d832cd3	0.06405034
113	0x3d1991d2	0.03749258
114	0x3caa5850	0.020794064
115	0xbdb2219f	-0.08697819
116	0x3d15863c	0.03650497
117	0xbc0ea7e8	-0.008707024
118	0x3d4d7506	0.05016043
119	0xbd027929	-0.03185383
120	0x3c90856c	0.017641746
121	0x3d8adea5	0.06780747
122	0xbc3f1220	-0.011662036
123	0xbcead774	-0.02866719
124	0x3d5f6736	0.05454179
125	0x3c893d48	0.016752854
126	0xbc324898	-0.0108815655
127	0xbd6fb226	-0.058519505

projection.weight f4 [1, 24]
0	0x3e2156ac	0.15755719
1	0x3d2ac012	0.04168708
2	0x3e3d0468	0.18458712
3	0x3e397f3a	0.1811494
4	0x3e1e96c2	0.15487197
5	0xbccdc178	-0.025116667
6	0xbc462748	-0.012094326
7	0x3dabb4f5	0.08384124
8	0x3e3419da	0.17587987
9	0x3e40d776	0.18832192
10	0xbdde84d6	-0.1086518
11	0xbd856cf3	-0.06514921
12	0xbcf0e892	-0.029407773
13	0xbdf5adfe	-0.11996077
14	0xbe268ddc	-0.16265053
15	0x3d4f43f0	0.0506019
16	0xbe19bbcf	-0.1501305
17	0x3d80e869	0.06294329
18	0x3c0bb9d7	0.008528194
19	0x3c8103d1	0.01574889
20	0xbdac4381	-0.08411313
21	0xbe296bec	-0.16545075
22	0xbd9d5b5f	-0.07683443
23	0xbdf56f4a	-0.11984117
